WARNING: Logging before InitGoogleLogging() is written to STDERR
I0315 06:04:04.157598  3684 net.cpp:49] Initializing net from parameters: 
name: "CaffeNet"
state {
  phase: TEST
}
layer {
  name: "data"
  type: "Input"
  top: "data"
  input_param {
    shape {
      dim: 10
      dim: 3
      dim: 227
      dim: 227
    }
  }
}
layer {
  name: "conv1"
  type: "Convolution"
  bottom: "data"
  top: "conv1"
  convolution_param {
    num_output: 96
    kernel_size: 11
    stride: 4
  }
}
layer {
  name: "relu1"
  type: "ReLU"
  bottom: "conv1"
  top: "conv1"
}
layer {
  name: "pool1"
  type: "Pooling"
  bottom: "conv1"
  top: "pool1"
  pooling_param {
    pool: MAX
    kernel_size: 3
    stride: 2
  }
}
layer {
  name: "norm1"
  type: "LRN"
  bottom: "pool1"
  top: "norm1"
  lrn_param {
    local_size: 5
    alpha: 0.0001
    beta: 0.75
  }
}
layer {
  name: "conv2"
  type: "Convolution"
  bottom: "norm1"
  top: "conv2"
  convolution_param {
    num_output: 256
    pad: 2
    kernel_size: 5
    group: 2
  }
}
layer {
  name: "relu2"
  type: "ReLU"
  bottom: "conv2"
  top: "conv2"
}
layer {
  name: "pool2"
  type: "Pooling"
  bottom: "conv2"
  top: "pool2"
  pooling_param {
    pool: MAX
    kernel_size: 3
    stride: 2
  }
}
layer {
  name: "norm2"
  type: "LRN"
  bottom: "pool2"
  top: "norm2"
  lrn_param {
    local_size: 5
    alpha: 0.0001
    beta: 0.75
  }
}
layer {
  name: "conv3"
  type: "Convolution"
  bottom: "norm2"
  top: "conv3"
  convolution_param {
    num_output: 384
    pad: 1
    kernel_size: 3
  }
}
layer {
  name: "relu3"
  type: "ReLU"
  bottom: "conv3"
  top: "conv3"
}
layer {
  name: "conv4"
  type: "Convolution"
  bottom: "conv3"
  top: "conv4"
  convolution_param {
    num_output: 384
    pad: 1
    kernel_size: 3
    group: 2
  }
}
layer {
  name: "relu4"
  type: "ReLU"
  bottom: "conv4"
  top: "conv4"
}
layer {
  name: "conv5"
  type: "Convolution"
  bottom: "conv4"
  top: "conv5"
  convolution_param {
    num_output: 256
    pad: 1
    kernel_size: 3
    group: 2
  }
}
layer {
  name: "relu5"
  type: "ReLU"
  bottom: "conv5"
  top: "conv5"
}
layer {
  name: "pool5"
  type: "Pooling"
  bottom: "conv5"
  top: "pool5"
  pooling_param {
    pool: MAX
    kernel_size: 3
    stride: 2
  }
}
layer {
  name: "fc6"
  type: "InnerProduct"
  bottom: "pool5"
  top: "fc6"
  inner_product_param {
    num_output: 4096
  }
}
layer {
  name: "relu6"
  type: "ReLU"
  bottom: "fc6"
  top: "fc6"
}
layer {
  name: "drop6"
  type: "Dropout"
  bottom: "fc6"
  top: "fc6"
  dropout_param {
    dropout_ratio: 0.5
  }
}
layer {
  name: "fc7"
  type: "InnerProduct"
  bottom: "fc6"
  top: "fc7"
  inner_product_param {
    num_output: 4096
  }
}
layer {
  name: "relu7"
  type: "ReLU"
  bottom: "fc7"
  top: "fc7"
}
layer {
  name: "drop7"
  type: "Dropout"
  bottom: "fc7"
  top: "fc7"
  dropout_param {
    dropout_ratio: 0.5
  }
}
layer {
  name: "fc8"
  type: "InnerProduct"
  bottom: "fc7"
  top: "fc8"
  inner_product_param {
    num_output: 1000
  }
}
layer {
  name: "prob"
  type: "Softmax"
  bottom: "fc8"
  top: "prob"
}
I0315 06:04:04.157717  3684 layer_factory.hpp:77] Creating layer data
I0315 06:04:04.157732  3684 net.cpp:91] Creating Layer data
I0315 06:04:04.157739  3684 net.cpp:399] data -> data
I0315 06:04:04.157766  3684 net.cpp:141] Setting up data
I0315 06:04:04.157776  3684 net.cpp:148] Top shape: 10 3 227 227 (1545870)
I0315 06:04:04.157780  3684 net.cpp:156] Memory required for data: 6183480
I0315 06:04:04.157785  3684 layer_factory.hpp:77] Creating layer conv1
I0315 06:04:04.157796  3684 net.cpp:91] Creating Layer conv1
I0315 06:04:04.157801  3684 net.cpp:425] conv1 <- data
I0315 06:04:04.157809  3684 net.cpp:399] conv1 -> conv1
I0315 06:04:04.157927  3684 net.cpp:141] Setting up conv1
I0315 06:04:04.157935  3684 net.cpp:148] Top shape: 10 96 55 55 (2904000)
I0315 06:04:04.157939  3684 net.cpp:156] Memory required for data: 17799480
I0315 06:04:04.157953  3684 layer_factory.hpp:77] Creating layer relu1
I0315 06:04:04.157960  3684 net.cpp:91] Creating Layer relu1
I0315 06:04:04.157964  3684 net.cpp:425] relu1 <- conv1
I0315 06:04:04.157975  3684 net.cpp:386] relu1 -> conv1 (in-place)
I0315 06:04:04.157989  3684 net.cpp:141] Setting up relu1
I0315 06:04:04.157994  3684 net.cpp:148] Top shape: 10 96 55 55 (2904000)
I0315 06:04:04.157997  3684 net.cpp:156] Memory required for data: 29415480
I0315 06:04:04.158001  3684 layer_factory.hpp:77] Creating layer pool1
I0315 06:04:04.158007  3684 net.cpp:91] Creating Layer pool1
I0315 06:04:04.158011  3684 net.cpp:425] pool1 <- conv1
I0315 06:04:04.158016  3684 net.cpp:399] pool1 -> pool1
I0315 06:04:04.158027  3684 net.cpp:141] Setting up pool1
I0315 06:04:04.158033  3684 net.cpp:148] Top shape: 10 96 27 27 (699840)
I0315 06:04:04.158036  3684 net.cpp:156] Memory required for data: 32214840
I0315 06:04:04.158041  3684 layer_factory.hpp:77] Creating layer norm1
I0315 06:04:04.158048  3684 net.cpp:91] Creating Layer norm1
I0315 06:04:04.158052  3684 net.cpp:425] norm1 <- pool1
I0315 06:04:04.158057  3684 net.cpp:399] norm1 -> norm1
I0315 06:04:04.158066  3684 net.cpp:141] Setting up norm1
I0315 06:04:04.158071  3684 net.cpp:148] Top shape: 10 96 27 27 (699840)
I0315 06:04:04.158074  3684 net.cpp:156] Memory required for data: 35014200
I0315 06:04:04.158078  3684 layer_factory.hpp:77] Creating layer conv2
I0315 06:04:04.158084  3684 net.cpp:91] Creating Layer conv2
I0315 06:04:04.158088  3684 net.cpp:425] conv2 <- norm1
I0315 06:04:04.158093  3684 net.cpp:399] conv2 -> conv2
I0315 06:04:04.158733  3684 net.cpp:141] Setting up conv2
I0315 06:04:04.158742  3684 net.cpp:148] Top shape: 10 256 27 27 (1866240)
I0315 06:04:04.158746  3684 net.cpp:156] Memory required for data: 42479160
I0315 06:04:04.158754  3684 layer_factory.hpp:77] Creating layer relu2
I0315 06:04:04.158761  3684 net.cpp:91] Creating Layer relu2
I0315 06:04:04.158764  3684 net.cpp:425] relu2 <- conv2
I0315 06:04:04.158769  3684 net.cpp:386] relu2 -> conv2 (in-place)
I0315 06:04:04.158776  3684 net.cpp:141] Setting up relu2
I0315 06:04:04.158779  3684 net.cpp:148] Top shape: 10 256 27 27 (1866240)
I0315 06:04:04.158783  3684 net.cpp:156] Memory required for data: 49944120
I0315 06:04:04.158787  3684 layer_factory.hpp:77] Creating layer pool2
I0315 06:04:04.158793  3684 net.cpp:91] Creating Layer pool2
I0315 06:04:04.158797  3684 net.cpp:425] pool2 <- conv2
I0315 06:04:04.158802  3684 net.cpp:399] pool2 -> pool2
I0315 06:04:04.158810  3684 net.cpp:141] Setting up pool2
I0315 06:04:04.158814  3684 net.cpp:148] Top shape: 10 256 13 13 (432640)
I0315 06:04:04.158818  3684 net.cpp:156] Memory required for data: 51674680
I0315 06:04:04.158823  3684 layer_factory.hpp:77] Creating layer norm2
I0315 06:04:04.158830  3684 net.cpp:91] Creating Layer norm2
I0315 06:04:04.158833  3684 net.cpp:425] norm2 <- pool2
I0315 06:04:04.158838  3684 net.cpp:399] norm2 -> norm2
I0315 06:04:04.158845  3684 net.cpp:141] Setting up norm2
I0315 06:04:04.158850  3684 net.cpp:148] Top shape: 10 256 13 13 (432640)
I0315 06:04:04.158854  3684 net.cpp:156] Memory required for data: 53405240
I0315 06:04:04.158857  3684 layer_factory.hpp:77] Creating layer conv3
I0315 06:04:04.158864  3684 net.cpp:91] Creating Layer conv3
I0315 06:04:04.158866  3684 net.cpp:425] conv3 <- norm2
I0315 06:04:04.158871  3684 net.cpp:399] conv3 -> conv3
I0315 06:04:04.160362  3684 net.cpp:141] Setting up conv3
I0315 06:04:04.160373  3684 net.cpp:148] Top shape: 10 384 13 13 (648960)
I0315 06:04:04.160377  3684 net.cpp:156] Memory required for data: 56001080
I0315 06:04:04.160387  3684 layer_factory.hpp:77] Creating layer relu3
I0315 06:04:04.160392  3684 net.cpp:91] Creating Layer relu3
I0315 06:04:04.160396  3684 net.cpp:425] relu3 <- conv3
I0315 06:04:04.160401  3684 net.cpp:386] relu3 -> conv3 (in-place)
I0315 06:04:04.160408  3684 net.cpp:141] Setting up relu3
I0315 06:04:04.160413  3684 net.cpp:148] Top shape: 10 384 13 13 (648960)
I0315 06:04:04.160416  3684 net.cpp:156] Memory required for data: 58596920
I0315 06:04:04.160419  3684 layer_factory.hpp:77] Creating layer conv4
I0315 06:04:04.160425  3684 net.cpp:91] Creating Layer conv4
I0315 06:04:04.160429  3684 net.cpp:425] conv4 <- conv3
I0315 06:04:04.160440  3684 net.cpp:399] conv4 -> conv4
I0315 06:04:04.161804  3684 net.cpp:141] Setting up conv4
I0315 06:04:04.161814  3684 net.cpp:148] Top shape: 10 384 13 13 (648960)
I0315 06:04:04.161818  3684 net.cpp:156] Memory required for data: 61192760
I0315 06:04:04.161825  3684 layer_factory.hpp:77] Creating layer relu4
I0315 06:04:04.161831  3684 net.cpp:91] Creating Layer relu4
I0315 06:04:04.161835  3684 net.cpp:425] relu4 <- conv4
I0315 06:04:04.161839  3684 net.cpp:386] relu4 -> conv4 (in-place)
I0315 06:04:04.161845  3684 net.cpp:141] Setting up relu4
I0315 06:04:04.161850  3684 net.cpp:148] Top shape: 10 384 13 13 (648960)
I0315 06:04:04.161854  3684 net.cpp:156] Memory required for data: 63788600
I0315 06:04:04.161857  3684 layer_factory.hpp:77] Creating layer conv5
I0315 06:04:04.161865  3684 net.cpp:91] Creating Layer conv5
I0315 06:04:04.161870  3684 net.cpp:425] conv5 <- conv4
I0315 06:04:04.161875  3684 net.cpp:399] conv5 -> conv5
I0315 06:04:04.162786  3684 net.cpp:141] Setting up conv5
I0315 06:04:04.162796  3684 net.cpp:148] Top shape: 10 256 13 13 (432640)
I0315 06:04:04.162801  3684 net.cpp:156] Memory required for data: 65519160
I0315 06:04:04.162809  3684 layer_factory.hpp:77] Creating layer relu5
I0315 06:04:04.162816  3684 net.cpp:91] Creating Layer relu5
I0315 06:04:04.162819  3684 net.cpp:425] relu5 <- conv5
I0315 06:04:04.162824  3684 net.cpp:386] relu5 -> conv5 (in-place)
I0315 06:04:04.162830  3684 net.cpp:141] Setting up relu5
I0315 06:04:04.162834  3684 net.cpp:148] Top shape: 10 256 13 13 (432640)
I0315 06:04:04.162838  3684 net.cpp:156] Memory required for data: 67249720
I0315 06:04:04.162842  3684 layer_factory.hpp:77] Creating layer pool5
I0315 06:04:04.162847  3684 net.cpp:91] Creating Layer pool5
I0315 06:04:04.162850  3684 net.cpp:425] pool5 <- conv5
I0315 06:04:04.162855  3684 net.cpp:399] pool5 -> pool5
I0315 06:04:04.162863  3684 net.cpp:141] Setting up pool5
I0315 06:04:04.162868  3684 net.cpp:148] Top shape: 10 256 6 6 (92160)
I0315 06:04:04.162871  3684 net.cpp:156] Memory required for data: 67618360
I0315 06:04:04.162874  3684 layer_factory.hpp:77] Creating layer fc6
I0315 06:04:04.162884  3684 net.cpp:91] Creating Layer fc6
I0315 06:04:04.162889  3684 net.cpp:425] fc6 <- pool5
I0315 06:04:04.162894  3684 net.cpp:399] fc6 -> fc6
I0315 06:04:04.217305  3684 net.cpp:141] Setting up fc6
I0315 06:04:04.217336  3684 net.cpp:148] Top shape: 10 4096 (40960)
I0315 06:04:04.217340  3684 net.cpp:156] Memory required for data: 67782200
I0315 06:04:04.217352  3684 layer_factory.hpp:77] Creating layer relu6
I0315 06:04:04.217362  3684 net.cpp:91] Creating Layer relu6
I0315 06:04:04.217367  3684 net.cpp:425] relu6 <- fc6
I0315 06:04:04.217375  3684 net.cpp:386] relu6 -> fc6 (in-place)
I0315 06:04:04.217382  3684 net.cpp:141] Setting up relu6
I0315 06:04:04.217387  3684 net.cpp:148] Top shape: 10 4096 (40960)
I0315 06:04:04.217391  3684 net.cpp:156] Memory required for data: 67946040
I0315 06:04:04.217394  3684 layer_factory.hpp:77] Creating layer drop6
I0315 06:04:04.217406  3684 net.cpp:91] Creating Layer drop6
I0315 06:04:04.217411  3684 net.cpp:425] drop6 <- fc6
I0315 06:04:04.217416  3684 net.cpp:386] drop6 -> fc6 (in-place)
I0315 06:04:04.217423  3684 net.cpp:141] Setting up drop6
I0315 06:04:04.217429  3684 net.cpp:148] Top shape: 10 4096 (40960)
I0315 06:04:04.217432  3684 net.cpp:156] Memory required for data: 68109880
I0315 06:04:04.217437  3684 layer_factory.hpp:77] Creating layer fc7
I0315 06:04:04.217444  3684 net.cpp:91] Creating Layer fc7
I0315 06:04:04.217448  3684 net.cpp:425] fc7 <- fc6
I0315 06:04:04.217454  3684 net.cpp:399] fc7 -> fc7
I0315 06:04:04.241822  3684 net.cpp:141] Setting up fc7
I0315 06:04:04.241849  3684 net.cpp:148] Top shape: 10 4096 (40960)
I0315 06:04:04.241854  3684 net.cpp:156] Memory required for data: 68273720
I0315 06:04:04.241865  3684 layer_factory.hpp:77] Creating layer relu7
I0315 06:04:04.241874  3684 net.cpp:91] Creating Layer relu7
I0315 06:04:04.241879  3684 net.cpp:425] relu7 <- fc7
I0315 06:04:04.241886  3684 net.cpp:386] relu7 -> fc7 (in-place)
I0315 06:04:04.241904  3684 net.cpp:141] Setting up relu7
I0315 06:04:04.241909  3684 net.cpp:148] Top shape: 10 4096 (40960)
I0315 06:04:04.241912  3684 net.cpp:156] Memory required for data: 68437560
I0315 06:04:04.241915  3684 layer_factory.hpp:77] Creating layer drop7
I0315 06:04:04.241925  3684 net.cpp:91] Creating Layer drop7
I0315 06:04:04.241928  3684 net.cpp:425] drop7 <- fc7
I0315 06:04:04.241933  3684 net.cpp:386] drop7 -> fc7 (in-place)
I0315 06:04:04.241940  3684 net.cpp:141] Setting up drop7
I0315 06:04:04.241945  3684 net.cpp:148] Top shape: 10 4096 (40960)
I0315 06:04:04.241948  3684 net.cpp:156] Memory required for data: 68601400
I0315 06:04:04.241951  3684 layer_factory.hpp:77] Creating layer fc8
I0315 06:04:04.241958  3684 net.cpp:91] Creating Layer fc8
I0315 06:04:04.241962  3684 net.cpp:425] fc8 <- fc7
I0315 06:04:04.241968  3684 net.cpp:399] fc8 -> fc8
I0315 06:04:04.247983  3684 net.cpp:141] Setting up fc8
I0315 06:04:04.247998  3684 net.cpp:148] Top shape: 10 1000 (10000)
I0315 06:04:04.248001  3684 net.cpp:156] Memory required for data: 68641400
I0315 06:04:04.248009  3684 layer_factory.hpp:77] Creating layer prob
I0315 06:04:04.248018  3684 net.cpp:91] Creating Layer prob
I0315 06:04:04.248023  3684 net.cpp:425] prob <- fc8
I0315 06:04:04.248029  3684 net.cpp:399] prob -> prob
I0315 06:04:04.248045  3684 net.cpp:141] Setting up prob
I0315 06:04:04.248051  3684 net.cpp:148] Top shape: 10 1000 (10000)
I0315 06:04:04.248055  3684 net.cpp:156] Memory required for data: 68681400
I0315 06:04:04.248059  3684 net.cpp:219] prob does not need backward computation.
I0315 06:04:04.248064  3684 net.cpp:219] fc8 does not need backward computation.
I0315 06:04:04.248069  3684 net.cpp:219] drop7 does not need backward computation.
I0315 06:04:04.248072  3684 net.cpp:219] relu7 does not need backward computation.
…
