…
net: "examples/authorship/lenet_train_test.prototxt"
I0313 17:16:57.799885 20252 solver.cpp:67] Creating training net from net file: examples/authorship/lenet_train_test.prototxt
I0313 17:16:57.800323 20252 net.cpp:275] The NetState phase (0) differed from the phase (1) specified by a rule in layer accuracy
I0313 17:16:57.800405 20252 net.cpp:39] Initializing net from parameters: 
name: "LeNet"
layers {
  top: "data"
  top: "label"
  type: DATA
  data_param {
    source: "examples/authorship/data/train_lmdb"
    batch_size: 8
    backend: LMDB
  }
  include {
    phase: TRAIN
  }
  transform_param {
    scale: 0.00390625
  }
}
layers {
  bottom: "data"
  top: "conv1"
  name: "conv1"
  type: CONVOLUTION
  blobs_lr: 1
  blobs_lr: 2
  convolution_param {
    num_output: 20
    kernel_size: 5
    stride: 1
    weight_filler {
      type: "xavier"
    }
    bias_filler {
      type: "constant"
    }
  }
}
layers {
  bottom: "conv1"
  top: "pool1"
  name: "pool1"
  type: POOLING
  pooling_param {
    pool: MAX
    kernel_size: 2
    stride: 2
  }
}
layers {
  bottom: "pool1"
  top: "conv2"
  name: "conv2"
  type: CONVOLUTION
  blobs_lr: 1
  blobs_lr: 2
  convolution_param {
    num_output: 50
    kernel_size: 5
    stride: 1
    weight_filler {
      type: "xavier"
    }
    bias_filler {
      type: "constant"
    }
  }
}
layers {
  bottom: "conv2"
  top: "pool2"
  name: "pool2"
  type: POOLING
  pooling_param {
    pool: MAX
    kernel_size: 2
    stride: 2
  }
}
layers {
  bottom: "pool2"
  top: "ip1"
  name: "ip1"
  type: INNER_PRODUCT
  blobs_lr: 1
  blobs_lr: 2
  inner_product_param {
    num_output: 500
    weight_filler {
      type: "xavier"
    }
    bias_filler {
      type: "constant"
    }
  }
}
layers {
  bottom: "ip1"
  top: "ip1"
  name: "relu1"
  type: RELU
}
layers {
  bottom: "ip1"
  top: "ip2"
  name: "ip2"
  type: INNER_PRODUCT
  blobs_lr: 1
  blobs_lr: 2
  inner_product_param {
    num_output: 2
    weight_filler {
      type: "xavier"
    }
    bias_filler {
      type: "constant"
    }
  }
}
layers {
  bottom: "ip2"
  bottom: "label"
  top: "loss"
  name: "loss"
  type: SOFTMAX_LOSS
}
state {
  phase: TRAIN
}
I0313 17:16:57.800604 20252 data_layer.cpp:68] Opening lmdb examples/authorship/data/train_lmdb
I0313 17:16:57.800631 20252 data_layer.cpp:128] output data size: 8,3,28,28
I0313 17:16:57.800725 20252 net.cpp:103] Top shape: 8 3 28 28 (18816)
I0313 17:16:57.800737 20252 net.cpp:103] Top shape: 8 1 1 1 (8)
I0313 17:16:57.800750 20252 net.cpp:67] Creating Layer conv1
I0313 17:16:57.800756 20252 net.cpp:394] conv1 <- data
I0313 17:16:57.800771 20252 net.cpp:356] conv1 -> conv1
I0313 17:16:57.800782 20252 net.cpp:96] Setting up conv1
I0313 17:16:57.801249 20252 net.cpp:103] Top shape: 8 20 24 24 (92160)
I0313 17:16:57.801276 20252 net.cpp:67] Creating Layer pool1
I0313 17:16:57.801285 20252 net.cpp:394] pool1 <- conv1
I0313 17:16:57.801292 20252 net.cpp:356] pool1 -> pool1
I0313 17:16:57.801309 20252 net.cpp:96] Setting up pool1
I0313 17:16:57.801323 20252 net.cpp:103] Top shape: 8 20 12 12 (23040)
I0313 17:16:57.801337 20252 net.cpp:67] Creating Layer conv2
I0313 17:16:57.801343 20252 net.cpp:394] conv2 <- pool1
I0313 17:16:57.801360 20252 net.cpp:356] conv2 -> conv2
I0313 17:16:57.801370 20252 net.cpp:96] Setting up conv2
I0313 17:16:57.801570 20252 net.cpp:103] Top shape: 8 50 8 8 (25600)
I0313 17:16:57.801585 20252 net.cpp:67] Creating Layer pool2
I0313 17:16:57.801591 20252 net.cpp:394] pool2 <- conv2
I0313 17:16:57.801599 20252 net.cpp:356] pool2 -> pool2
I0313 17:16:57.801607 20252 net.cpp:96] Setting up pool2
I0313 17:16:57.801614 20252 net.cpp:103] Top shape: 8 50 4 4 (6400)
I0313 17:16:57.801622 20252 net.cpp:67] Creating Layer ip1
I0313 17:16:57.801627 20252 net.cpp:394] ip1 <- pool2
I0313 17:16:57.801635 20252 net.cpp:356] ip1 -> ip1
I0313 17:16:57.801645 20252 net.cpp:96] Setting up ip1
I0313 17:16:57.805049 20252 net.cpp:103] Top shape: 8 500 1 1 (4000)
I0313 17:16:57.805078 20252 net.cpp:67] Creating Layer relu1
I0313 17:16:57.805085 20252 net.cpp:394] relu1 <- ip1
I0313 17:16:57.805094 20252 net.cpp:345] relu1 -> ip1 (in-place)
I0313 17:16:57.805104 20252 net.cpp:96] Setting up relu1
I0313 17:16:57.805111 20252 net.cpp:103] Top shape: 8 500 1 1 (4000)
I0313 17:16:57.805120 20252 net.cpp:67] Creating Layer ip2
I0313 17:16:57.805125 20252 net.cpp:394] ip2 <- ip1
I0313 17:16:57.805135 20252 net.cpp:356] ip2 -> ip2
I0313 17:16:57.805143 20252 net.cpp:96] Setting up ip2
I0313 17:16:57.805166 20252 net.cpp:103] Top shape: 8 2 1 1 (16)
I0313 17:16:57.805182 20252 net.cpp:67] Creating Layer loss
I0313 17:16:57.805188 20252 net.cpp:394] loss <- ip2
I0313 17:16:57.805196 20252 net.cpp:394] loss <- label
I0313 17:16:57.805204 20252 net.cpp:356] loss -> loss
I0313 17:16:57.805213 20252 net.cpp:96] Setting up loss
I0313 17:16:57.805229 20252 net.cpp:103] Top shape: 1 1 1 1 (1)
I0313 17:16:57.805235 20252 net.cpp:109]     with loss weight 1
I0313 17:16:57.805261 20252 net.cpp:170] loss needs backward computation.
I0313 17:16:57.805269 20252 net.cpp:170] ip2 needs backward computation.
I0313 17:16:57.805274 20252 net.cpp:170] relu1 needs backward computation.
I0313 17:16:57.805279 20252 net.cpp:170] ip1 needs backward computation.
I0313 17:16:57.805285 20252 net.cpp:170] pool2 needs backward computation.
I0313 17:16:57.805290 20252 net.cpp:170] conv2 needs backward computation.
I0313 17:16:57.805296 20252 net.cpp:170] pool1 needs backward computation.
I0313 17:16:57.805302 20252 net.cpp:170] conv1 needs backward computation.
I0313 17:16:57.805313 20252 net.cpp:208] This network produces output loss
I0313 17:16:57.805327 20252 net.cpp:467] Collecting Learning Rate and Weight Decay.
I0313 17:16:57.805335 20252 net.cpp:219] Network initialization done.
I0313 17:16:57.805341 20252 net.cpp:220] Memory required for data: 696164
I0313 17:16:57.805657 20252 solver.cpp:151] Creating test net (#0) specified by net file: examples/authorship/lenet_train_test.prototxt
I0313 17:16:57.805773 20252 net.cpp:39] Initializing net from parameters: 
name: "LeNet"
layers {
  top: "data"
  top: "label"
  type: DATA
  data_param {
    source: "examples/authorship/data/test_lmdb"
    batch_size: 5
    backend: LMDB
  }
  include {
    phase: TEST
  }
  transform_param {
    scale: 0.00390625
  }
}
layers {
  bottom: "data"
  top: "conv1"
  name: "conv1"
  type: CONVOLUTION
  blobs_lr: 1
  blobs_lr: 2
  convolution_param {
    num_output: 20
    kernel_size: 5
    stride: 1
    weight_filler {
      type: "xavier"
    }
    bias_filler {
      type: "constant"
    }
  }
}
layers {
  bottom: "conv1"
  top: "pool1"
  name: "pool1"
  type: POOLING
  pooling_param {
    pool: MAX
    kernel_size: 2
    stride: 2
  }
}
layers {
  bottom: "pool1"
  top: "conv2"
  name: "conv2"
  type: CONVOLUTION
  blobs_lr: 1
  blobs_lr: 2
  convolution_param {
    num_output: 50
    kernel_size: 5
    stride: 1
    weight_filler {
      type: "xavier"
    }
    bias_filler {
      type: "constant"
    }
  }
}
layers {
  bottom: "conv2"
  top: "pool2"
  name: "pool2"
  type: POOLING
  pooling_param {
    pool: MAX
    kernel_size: 2
    stride: 2
  }
}
layers {
  bottom: "pool2"
  top: "ip1"
  name: "ip1"
  type: INNER_PRODUCT
  blobs_lr: 1
  blobs_lr: 2
  inner_product_param {
    num_output: 500
    weight_filler {
      type: "xavier"
    }
    bias_filler {
      type: "constant"
    }
  }
}
layers {
  bottom: "ip1"
  top: "ip1"
  name: "relu1"
  type: RELU
}
layers {
  bottom: "ip1"
  top: "ip2"
  name: "ip2"
  type: INNER_PRODUCT
  blobs_lr: 1
  blobs_lr: 2
  inner_product_param {
    num_output: 2
    weight_filler {
      type: "xavier"
    }
    bias_filler {
      type: "constant"
    }
  }
}
layers {
  bottom: "ip2"
  bottom: "label"
  top: "accuracy"
  name: "accuracy"
  type: ACCURACY
  include {
    phase: TEST
  }
}
layers {
  bottom: "ip2"
  bottom: "label"
  top: "loss"
  name: "loss"
  type: SOFTMAX_LOSS
}
state {
  phase: TEST
}
I0313 17:16:57.805938 20252 data_layer.cpp:68] Opening lmdb examples/authorship/data/test_lmdb
I0313 17:16:57.805953 20252 data_layer.cpp:128] output data size: 5,3,28,28
I0313 17:16:57.805997 20252 net.cpp:103] Top shape: 5 3 28 28 (11760)
I0313 17:16:57.806008 20252 net.cpp:103] Top shape: 5 1 1 1 (5)
I0313 17:16:57.806059 20252 net.cpp:103] Top shape: 5 1 1 1 (5)
I0313 17:16:57.806066 20252 net.cpp:103] Top shape: 5 1 1 1 (5)
I0313 17:16:57.806077 20252 net.cpp:67] Creating Layer conv1
I0313 17:16:57.806082 20252 net.cpp:394] conv1 <- data
I0313 17:16:57.806092 20252 net.cpp:356] conv1 -> conv1
I0313 17:16:57.806102 20252 net.cpp:96] Setting up conv1
I0313 17:16:57.806129 20252 net.cpp:103] Top shape: 5 20 24 24 (57600)
I0313 17:16:57.806144 20252 net.cpp:67] Creating Layer pool1
I0313 17:16:57.806151 20252 net.cpp:394] pool1 <- conv1
I0313 17:16:57.806160 20252 net.cpp:356] pool1 -> pool1
I0313 17:16:57.806169 20252 net.cpp:96] Setting up pool1
I0313 17:16:57.806176 20252 net.cpp:103] Top shape: 5 20 12 12 (14400)
I0313 17:16:57.806185 20252 net.cpp:67] Creating Layer conv2
I0313 17:16:57.806191 20252 net.cpp:394] conv2 <- pool1
I0313 17:16:57.806200 20252 net.cpp:356] conv2 -> conv2
I0313 17:16:57.806208 20252 net.cpp:96] Setting up conv2
I0313 17:16:57.806417 20252 net.cpp:103] Top shape: 5 50 8 8 (16000)
I0313 17:16:57.806434 20252 net.cpp:67] Creating Layer pool2
I0313 17:16:57.806442 20252 net.cpp:394] pool2 <- conv2
I0313 17:16:57.806449 20252 net.cpp:356] pool2 -> pool2
I0313 17:16:57.806457 20252 net.cpp:96] Setting up pool2
I0313 17:16:57.806464 20252 net.cpp:103] Top shape: 5 50 4 4 (4000)
I0313 17:16:57.806473 20252 net.cpp:67] Creating Layer ip1
I0313 17:16:57.806480 20252 net.cpp:394] ip1 <- pool2
I0313 17:16:57.806489 20252 net.cpp:356] ip1 -> ip1
I0313 17:16:57.806499 20252 net.cpp:96] Setting up ip1
I0313 17:16:57.810137 20252 net.cpp:103] Top shape: 5 500 1 1 (2500)
I0313 17:16:57.810168 20252 net.cpp:67] Creating Layer relu1
I0313 17:16:57.810178 20252 net.cpp:394] relu1 <- ip1
I0313 17:16:57.810186 20252 net.cpp:345] relu1 -> ip1 (in-place)
I0313 17:16:57.810195 20252 net.cpp:96] Setting up relu1
I0313 17:16:57.810201 20252 net.cpp:103] Top shape: 5 500 1 1 (2500)
I0313 17:16:57.810212 20252 net.cpp:67] Creating Layer ip2
I0313 17:16:57.810219 20252 net.cpp:394] ip2 <- ip1
I0313 17:16:57.810235 20252 net.cpp:356] ip2 -> ip2
I0313 17:16:57.810243 20252 net.cpp:96] Setting up ip2
I0313 17:16:57.810266 20252 net.cpp:103] Top shape: 5 2 1 1 (10)
I0313 17:16:57.810277 20252 net.cpp:67] Creating Layer ip2_ip2_0_split
I0313 17:16:57.810292 20252 net.cpp:394] ip2_ip2_0_split <- ip2
I0313 17:16:57.810302 20252 net.cpp:356] ip2_ip2_0_split -> ip2_ip2_0_split_0
I0313 17:16:57.810310 20252 net.cpp:356] ip2_ip2_0_split -> ip2_ip2_0_split_1
I0313 17:16:57.810318 20252 net.cpp:96] Setting up ip2_ip2_0_split
I0313 17:16:57.810325 20252 net.cpp:103] Top shape: 5 2 1 1 (10)
I0313 17:16:57.810331 20252 net.cpp:103] Top shape: 5 2 1 1 (10)
I0313 17:16:57.810339 20252 net.cpp:67] Creating Layer accuracy
I0313 17:16:57.810345 20252 net.cpp:394] accuracy <- ip2_ip2_0_split_0
I0313 17:16:57.810361 20252 net.cpp:356] accuracy -> accuracy
I0313 17:16:57.810369 20252 net.cpp:96] Setting up accuracy
I0313 17:16:57.810379 20252 net.cpp:103] Top shape: 1 1 1 1 (1)
I0313 17:16:57.810387 20252 net.cpp:67] Creating Layer loss
I0313 17:16:57.810392 20252 net.cpp:394] loss <- ip2_ip2_0_split_1
I0313 17:16:57.810408 20252 net.cpp:356] loss -> loss
I0313 17:16:57.810417 20252 net.cpp:96] Setting up loss
I0313 17:16:57.810426 20252 net.cpp:103] Top shape: 1 1 1 1 (1)
I0313 17:16:57.810432 20252 net.cpp:109]     with loss weight 1
I0313 17:16:57.810442 20252 net.cpp:170] loss needs backward computation.
I0313 17:16:57.810449 20252 net.cpp:172] accuracy does not need backward computation.
I0313 17:16:57.810454 20252 net.cpp:170] ip2_ip2_0_split needs backward computation.
I0313 17:16:57.810461 20252 net.cpp:170] ip2 needs backward computation.
I0313 17:16:57.810466 20252 net.cpp:170] relu1 needs backward computation.
…
