…
I0313 07:08:15.163996 15088 net.cpp:275] The NetState phase (0) differed from the phase (1) specified by a rule in layer mnist
I0313 07:08:15.164021 15088 net.cpp:275] The NetState phase (0) differed from the phase (1) specified by a rule in layer accuracy
I0313 07:08:15.164109 15088 net.cpp:39] Initializing net from parameters: 
name: "LeNet"
layers {
  top: "data"
  top: "label"
  name: "mnist"
  type: DATA
  data_param {
    source: "examples/authorship/train_lmdb"
    batch_size: 8
    backend: LMDB
  }
  include {
    phase: TRAIN
  }
  transform_param {
    scale: 0.00390625
  }
}
layers {
  bottom: "data"
  top: "conv1"
  name: "conv1"
  type: CONVOLUTION
  blobs_lr: 1
  blobs_lr: 2
  convolution_param {
    num_output: 20
    kernel_size: 5
    stride: 1
    weight_filler {
      type: "xavier"
    }
    bias_filler {
      type: "constant"
    }
  }
}
layers {
  bottom: "conv1"
  top: "pool1"
  name: "pool1"
  type: POOLING
  pooling_param {
    pool: MAX
    kernel_size: 2
    stride: 2
  }
}
layers {
  bottom: "pool1"
  top: "conv2"
  name: "conv2"
  type: CONVOLUTION
  blobs_lr: 1
  blobs_lr: 2
  convolution_param {
    num_output: 50
    kernel_size: 5
    stride: 1
    weight_filler {
      type: "xavier"
    }
    bias_filler {
      type: "constant"
    }
  }
}
layers {
  bottom: "conv2"
  top: "pool2"
  name: "pool2"
  type: POOLING
  pooling_param {
    pool: MAX
    kernel_size: 2
    stride: 2
  }
}
layers {
  bottom: "pool2"
  top: "ip1"
  name: "ip1"
  type: INNER_PRODUCT
  blobs_lr: 1
  blobs_lr: 2
  inner_product_param {
    num_output: 500
    weight_filler {
      type: "xavier"
    }
    bias_filler {
      type: "constant"
    }
  }
}
layers {
  bottom: "ip1"
  top: "ip1"
  name: "relu1"
  type: RELU
}
layers {
  bottom: "ip1"
  top: "ip2"
  name: "ip2"
  type: INNER_PRODUCT
  blobs_lr: 1
  blobs_lr: 2
  inner_product_param {
    num_output: 2
    weight_filler {
      type: "xavier"
    }
    bias_filler {
      type: "constant"
    }
  }
}
layers {
  bottom: "ip2"
  bottom: "label"
  top: "loss"
  name: "loss"
  type: SOFTMAX_LOSS
}
state {
  phase: TRAIN
}
I0313 07:08:15.164183 15088 net.cpp:67] Creating Layer mnist
I0313 07:08:15.164196 15088 net.cpp:356] mnist -> data
I0313 07:08:15.164232 15088 net.cpp:356] mnist -> label
I0313 07:08:15.164248 15088 net.cpp:96] Setting up mnist
I0313 07:08:15.164328 15088 data_layer.cpp:68] Opening lmdb examples/authorship/train_lmdb
I0313 07:08:15.164376 15088 data_layer.cpp:128] output data size: 8,3,20,20
I0313 07:08:15.164458 15088 net.cpp:103] Top shape: 8 3 20 20 (9600)
I0313 07:08:15.164470 15088 net.cpp:103] Top shape: 8 1 1 1 (8)
I0313 07:08:15.164484 15088 net.cpp:67] Creating Layer conv1
I0313 07:08:15.164489 15088 net.cpp:394] conv1 <- data
I0313 07:08:15.164505 15088 net.cpp:356] conv1 -> conv1
I0313 07:08:15.164515 15088 net.cpp:96] Setting up conv1
I0313 07:08:15.164937 15088 net.cpp:103] Top shape: 8 20 16 16 (40960)
I0313 07:08:15.164966 15088 net.cpp:67] Creating Layer pool1
I0313 07:08:15.164974 15088 net.cpp:394] pool1 <- conv1
I0313 07:08:15.164983 15088 net.cpp:356] pool1 -> pool1
I0313 07:08:15.165001 15088 net.cpp:96] Setting up pool1
I0313 07:08:15.165016 15088 net.cpp:103] Top shape: 8 20 8 8 (10240)
I0313 07:08:15.165025 15088 net.cpp:67] Creating Layer conv2
I0313 07:08:15.165032 15088 net.cpp:394] conv2 <- pool1
I0313 07:08:15.165055 15088 net.cpp:356] conv2 -> conv2
I0313 07:08:15.165066 15088 net.cpp:96] Setting up conv2
I0313 07:08:15.165310 15088 net.cpp:103] Top shape: 8 50 4 4 (6400)
I0313 07:08:15.165338 15088 net.cpp:67] Creating Layer pool2
I0313 07:08:15.165345 15088 net.cpp:394] pool2 <- conv2
I0313 07:08:15.165355 15088 net.cpp:356] pool2 -> pool2
I0313 07:08:15.165364 15088 net.cpp:96] Setting up pool2
I0313 07:08:15.165372 15088 net.cpp:103] Top shape: 8 50 2 2 (1600)
I0313 07:08:15.165382 15088 net.cpp:67] Creating Layer ip1
I0313 07:08:15.165388 15088 net.cpp:394] ip1 <- pool2
I0313 07:08:15.165397 15088 net.cpp:356] ip1 -> ip1
I0313 07:08:15.165410 15088 net.cpp:96] Setting up ip1
I0313 07:08:15.166213 15088 net.cpp:103] Top shape: 8 500 1 1 (4000)
I0313 07:08:15.166232 15088 net.cpp:67] Creating Layer relu1
I0313 07:08:15.166239 15088 net.cpp:394] relu1 <- ip1
I0313 07:08:15.166247 15088 net.cpp:345] relu1 -> ip1 (in-place)
I0313 07:08:15.166256 15088 net.cpp:96] Setting up relu1
I0313 07:08:15.166263 15088 net.cpp:103] Top shape: 8 500 1 1 (4000)
I0313 07:08:15.166272 15088 net.cpp:67] Creating Layer ip2
I0313 07:08:15.166278 15088 net.cpp:394] ip2 <- ip1
I0313 07:08:15.166287 15088 net.cpp:356] ip2 -> ip2
I0313 07:08:15.166296 15088 net.cpp:96] Setting up ip2
I0313 07:08:15.166314 15088 net.cpp:103] Top shape: 8 2 1 1 (16)
I0313 07:08:15.166328 15088 net.cpp:67] Creating Layer loss
I0313 07:08:15.166335 15088 net.cpp:394] loss <- ip2
I0313 07:08:15.166342 15088 net.cpp:394] loss <- label
I0313 07:08:15.166349 15088 net.cpp:356] loss -> loss
I0313 07:08:15.166359 15088 net.cpp:96] Setting up loss
I0313 07:08:15.166374 15088 net.cpp:103] Top shape: 1 1 1 1 (1)
I0313 07:08:15.166395 15088 net.cpp:109]     with loss weight 1
I0313 07:08:15.166427 15088 net.cpp:170] loss needs backward computation.
I0313 07:08:15.166435 15088 net.cpp:170] ip2 needs backward computation.
I0313 07:08:15.166440 15088 net.cpp:170] relu1 needs backward computation.
I0313 07:08:15.166445 15088 net.cpp:170] ip1 needs backward computation.
I0313 07:08:15.166450 15088 net.cpp:170] pool2 needs backward computation.
…
I0313 07:08:15.166841 15088 solver.cpp:151] Creating test net (#0) specified by net file: examples/authorship/lenet_train_test.prototxt
I0313 07:08:15.166882 15088 net.cpp:275] The NetState phase (1) differed from the phase (0) specified by a rule in layer mnist
I0313 07:08:15.166981 15088 net.cpp:39] Initializing net from parameters: 
name: "LeNet"
layers {
  top: "data"
  top: "label"
  name: "mnist"
  type: DATA
  data_param {
    source: "examples/authorship/test_lmdb"
    batch_size: 8
    backend: LMDB
  }
  include {
    phase: TEST
  }
  transform_param {
    scale: 0.00390625
  }
}
layers {
  bottom: "data"
  top: "conv1"
  name: "conv1"
  type: CONVOLUTION
  blobs_lr: 1
  blobs_lr: 2
  convolution_param {
    num_output: 20
    kernel_size: 5
    stride: 1
    weight_filler {
      type: "xavier"
    }
    bias_filler {
      type: "constant"
    }
  }
}
layers {
  bottom: "conv1"
  top: "pool1"
  name: "pool1"
  type: POOLING
  pooling_param {
    pool: MAX
    kernel_size: 2
    stride: 2
  }
}
layers {
  bottom: "pool1"
  top: "conv2"
  name: "conv2"
  type: CONVOLUTION
  blobs_lr: 1
  blobs_lr: 2
  convolution_param {
    num_output: 50
    kernel_size: 5
    stride: 1
    weight_filler {
      type: "xavier"
    }
    bias_filler {
      type: "constant"
    }
  }
}
layers {
  bottom: "conv2"
  top: "pool2"
  name: "pool2"
  type: POOLING
  pooling_param {
    pool: MAX
    kernel_size: 2
    stride: 2
  }
}
layers {
  bottom: "pool2"
  top: "ip1"
  name: "ip1"
  type: INNER_PRODUCT
  blobs_lr: 1
  blobs_lr: 2
  inner_product_param {
    num_output: 500
    weight_filler {
      type: "xavier"
    }
    bias_filler {
      type: "constant"
    }
  }
}
layers {
  bottom: "ip1"
  top: "ip1"
  name: "relu1"
  type: RELU
}
layers {
  bottom: "ip1"
  top: "ip2"
  name: "ip2"
  type: INNER_PRODUCT
  blobs_lr: 1
  blobs_lr: 2
  inner_product_param {
    num_output: 2
    weight_filler {
      type: "xavier"
    }
    bias_filler {
      type: "constant"
    }
  }
}
layers {
  bottom: "ip2"
  bottom: "label"
  top: "accuracy"
  name: "accuracy"
  type: ACCURACY
  include {
    phase: TEST
  }
}
layers {
  bottom: "ip2"
  bottom: "label"
  top: "loss"
  name: "loss"
  type: SOFTMAX_LOSS
}
state {
  phase: TEST
}
I0313 07:08:15.167073 15088 net.cpp:67] Creating Layer mnist
I0313 07:08:15.167083 15088 net.cpp:356] mnist -> data
I0313 07:08:15.167095 15088 net.cpp:356] mnist -> label
I0313 07:08:15.167104 15088 net.cpp:96] Setting up mnist
I0313 07:08:15.167152 15088 data_layer.cpp:68] Opening lmdb examples/authorship/test_lmdb
I0313 07:08:15.167168 15088 data_layer.cpp:128] output data size: 8,3,20,20
I0313 07:08:15.167212 15088 net.cpp:103] Top shape: 8 3 20 20 (9600)
I0313 07:08:15.167235 15088 net.cpp:103] Top shape: 8 1 1 1 (8)
I0313 07:08:15.167248 15088 net.cpp:67] Creating Layer label_mnist_1_split
I0313 07:08:15.167254 15088 net.cpp:394] label_mnist_1_split <- label
I0313 07:08:15.167263 15088 net.cpp:356] label_mnist_1_split -> label_mnist_1_split_0
I0313 07:08:15.167273 15088 net.cpp:356] label_mnist_1_split -> label_mnist_1_split_1
I0313 07:08:15.167281 15088 net.cpp:96] Setting up label_mnist_1_split
I0313 07:08:15.167290 15088 net.cpp:103] Top shape: 8 1 1 1 (8)
I0313 07:08:15.167296 15088 net.cpp:103] Top shape: 8 1 1 1 (8)
I0313 07:08:15.167306 15088 net.cpp:67] Creating Layer conv1
I0313 07:08:15.167313 15088 net.cpp:394] conv1 <- data
I0313 07:08:15.167323 15088 net.cpp:356] conv1 -> conv1
I0313 07:08:15.167332 15088 net.cpp:96] Setting up conv1
I0313 07:08:15.167359 15088 net.cpp:103] Top shape: 8 20 16 16 (40960)
I0313 07:08:15.167373 15088 net.cpp:67] Creating Layer pool1
I0313 07:08:15.167381 15088 net.cpp:394] pool1 <- conv1
I0313 07:08:15.167388 15088 net.cpp:356] pool1 -> pool1
I0313 07:08:15.167397 15088 net.cpp:96] Setting up pool1
I0313 07:08:15.167403 15088 net.cpp:103] Top shape: 8 20 8 8 (10240)
I0313 07:08:15.167414 15088 net.cpp:67] Creating Layer conv2
I0313 07:08:15.167420 15088 net.cpp:394] conv2 <- pool1
I0313 07:08:15.167429 15088 net.cpp:356] conv2 -> conv2
I0313 07:08:15.167438 15088 net.cpp:96] Setting up conv2
I0313 07:08:15.167683 15088 net.cpp:103] Top shape: 8 50 4 4 (6400)
I0313 07:08:15.167701 15088 net.cpp:67] Creating Layer pool2
I0313 07:08:15.167708 15088 net.cpp:394] pool2 <- conv2
I0313 07:08:15.167717 15088 net.cpp:356] pool2 -> pool2
I0313 07:08:15.167788 15088 net.cpp:96] Setting up pool2
I0313 07:08:15.167796 15088 net.cpp:103] Top shape: 8 50 2 2 (1600)
I0313 07:08:15.167805 15088 net.cpp:67] Creating Layer ip1
I0313 07:08:15.167811 15088 net.cpp:394] ip1 <- pool2
I0313 07:08:15.167820 15088 net.cpp:356] ip1 -> ip1
I0313 07:08:15.167830 15088 net.cpp:96] Setting up ip1
I0313 07:08:15.168624 15088 net.cpp:103] Top shape: 8 500 1 1 (4000)
I0313 07:08:15.168642 15088 net.cpp:67] Creating Layer relu1
I0313 07:08:15.168649 15088 net.cpp:394] relu1 <- ip1
I0313 07:08:15.168658 15088 net.cpp:345] relu1 -> ip1 (in-place)
I0313 07:08:15.168668 15088 net.cpp:96] Setting up relu1
I0313 07:08:15.168673 15088 net.cpp:103] Top shape: 8 500 1 1 (4000)
I0313 07:08:15.168682 15088 net.cpp:67] Creating Layer ip2
I0313 07:08:15.168689 15088 net.cpp:394] ip2 <- ip1
I0313 07:08:15.168697 15088 net.cpp:356] ip2 -> ip2
I0313 07:08:15.168715 15088 net.cpp:96] Setting up ip2
I0313 07:08:15.168735 15088 net.cpp:103] Top shape: 8 2 1 1 (16)
I0313 07:08:15.168746 15088 net.cpp:67] Creating Layer ip2_ip2_0_split
I0313 07:08:15.168761 15088 net.cpp:394] ip2_ip2_0_split <- ip2
I0313 07:08:15.168768 15088 net.cpp:356] ip2_ip2_0_split -> ip2_ip2_0_split_0
I0313 07:08:15.168779 15088 net.cpp:356] ip2_ip2_0_split -> ip2_ip2_0_split_1
I0313 07:08:15.168788 15088 net.cpp:96] Setting up ip2_ip2_0_split
I0313 07:08:15.168794 15088 net.cpp:103] Top shape: 8 2 1 1 (16)
I0313 07:08:15.168800 15088 net.cpp:103] Top shape: 8 2 1 1 (16)
I0313 07:08:15.168809 15088 net.cpp:67] Creating Layer accuracy
I0313 07:08:15.168815 15088 net.cpp:394] accuracy <- ip2_ip2_0_split_0
I0313 07:08:15.168835 15088 net.cpp:394] accuracy <- label_mnist_1_split_0
I0313 07:08:15.168843 15088 net.cpp:356] accuracy -> accuracy
I0313 07:08:15.168853 15088 net.cpp:96] Setting up accuracy
I0313 07:08:15.168860 15088 net.cpp:103] Top shape: 1 1 1 1 (1)
I0313 07:08:15.168870 15088 net.cpp:67] Creating Layer loss
I0313 07:08:15.168876 15088 net.cpp:394] loss <- ip2_ip2_0_split_1
I0313 07:08:15.168884 15088 net.cpp:394] loss <- label_mnist_1_split_1
I0313 07:08:15.168890 15088 net.cpp:356] loss -> loss
I0313 07:08:15.168898 15088 net.cpp:96] Setting up loss
I0313 07:08:15.168908 15088 net.cpp:103] Top shape: 1 1 1 1 (1)
I0313 07:08:15.168915 15088 net.cpp:109]     with loss weight 1
I0313 07:08:15.168923 15088 net.cpp:170] loss needs backward computation.
I0313 07:08:15.168943 15088 net.cpp:172] accuracy does not need backward computation.
I0313 07:08:15.168949 15088 net.cpp:170] ip2_ip2_0_split needs backward computation.
I0313 07:08:15.168956 15088 net.cpp:170] ip2 needs backward computation.
I0313 07:08:15.168962 15088 net.cpp:170] relu1 needs backward computation.
…
